checkpoint.pth (torch, 29271 bytes, 6 tensors)

fc1.weight f4 [64, 37]
-0.012264905 -0.05729379 -0.065683745 0.08562448 0.1983019 0.049079027 0.17231888 0.15796426
-0.23223132 -0.10073426 0.07521245 0.035361685 -0.06418063 -0.448368 -0.38043803 -0.0017302752
0.097922415 0.14293243 -0.026746102 0.008368529 0.013633978 0.15211159 0.0551535 0.17229037
-0.3626282 0.059204295 0.06137898 -0.13846365 0.056921527 0.0038497976 -0.10896248 0.094884954
0.023724787 0.08765211 -0.416793 -0.02435316 -0.024939459 -0.08155129 0.20041789 0.06658276
0.19382256 -0.6296306 -0.056304455 -0.0068377634 0.21348561 -0.43698683 -1.2758099 0.14481658
-0.04917248 0.0402968 -0.005109043 0.3133463 -0.093107805 0.32214436 0.08298781 0.0063845995
-0.55459505 -0.15266702 -0.16379589 0.058834653 -0.08974589 -0.27984035 -0.04335818 0.16430509
0.043280393 -0.04774199 -0.46698824 0.05189442 0.07726366 0.1491624 -0.50981164 -0.6035951
0.05769187 0.010290578 0.13473684 0.09131982 -0.13953164 0.1388662 -0.06501234 -0.8623543
-0.16065739 0.46090433 -0.2951215 -1.3536997 -0.029274372 0.1713569 0.012075466 -0.37313423
-0.10303734 -0.0011695707 -0.06644425 -0.02011766 0.07416836 0.20153227 -0.79935336 0.2813127
0.042293232 -0.4889822 -0.5188468 -0.14735341 0.20610273 0.26462623 -0.5840048 -0.11901678
0.0449656 -0.28653806 0.056953046 -0.7204508 -0.49235368 0.053793523 0.00552669 0.06150516
0.11947664 0.09854023 0.11385203 0.0018666612 0.06311125 0.076090366 0.052033752 0.118734136
0.13030092 0.015009187 0.073790364 0.04633599 0.067962445 0.036162276 -0.025247268 -0.0009438772
0.011442044 -0.0133674275 0.041417856 0.4762657 -0.70883703 -0.46546814 -0.6945718 -2.2694376
0.078333065 0.032443594 0.09846625 0.07031828 -0.01522032 0.0769647 0.12022018 0.09819848
0.15975367 0.16484602 -0.02451182 -0.008015637 -0.031535387 -0.6221916 -0.0065632896 -0.3295795
-0.12425447 -0.6055723 0.17811115 0.16536614 -0.30094814 -0.7309318 0.32385182 -0.2174327
-0.46481755 -0.5087898 -0.3215367 -0.4394554 -0.2587854 -0.07920798 -0.038419 -0.34919453
-0.2194601 -0.064560585 0.09614381 -0.15132236 0.109055735 -0.22234228 -0.29725337 0.092292085
0.13228883 -0.73824793 -0.3795107 0.015449465 0.2302776 0.14724769 0.303621 0.0050101713
-0.16258945 0.028129045 0.04821827 0.027446786 -0.0063538104 -0.008141292 0.3545656 0.030148808
-0.08636292 -0.41383126 -2.636769 0.037848253 -0.027283277 0.055673726 -0.07959941 -0.0064337626
0.027957102 0.062407296 0.032936912 0.07712895 0.04260315 0.1155186 0.1045713 0.09028976
0.20931144 0.1656249 -0.004458821 0.036563065 0.081591904 0.14051163 0.09733756 0.116829626
0.017376022 0.0006225153 0.004591718 0.16219647 0.031020816 0.0030496693 -0.05372947 -0.18010497
-0.01038451 -0.26928273 0.3203319 -0.38533902 -0.43042967 0.10404164 0.08951892 0.1723036
-0.09377553 0.072896816 -0.14589703 -0.1039194 0.23175874 -0.2877454 -0.57846266 -0.08717665
0.18829168 0.29340273 -0.22746345 -0.22155523 -0.0370899 -0.19439603 0.36790663 -0.54182166
-0.5821272 0.16647242 -0.10932969 -0.20926444 -0.21181314 -0.03145521 -0.024861293 -0.16585056
00000000: bdf2 48bc e5ac 6abd 3385 86bd e35b af3d
00000010: a70f 4b3e 1707 493d 5c74 303e 62c1 213e
00000020: 0cce 6dbe c44d cebd fc08 9a3d 6ad7 103d
00000030: 2271 83bd 7e90 e5be c6c8 c2be 67ca e2ba
00000040: 8c8b c83d e15c 123e a41a dbbc 281c 093c
00000050: 0c61 5f3c 24c3 1b3e a3e8 613d e36c 303e
00000060: 67aa b9be 3480 723d 8668 7b3d 6ac9 0dbe
00000070: 8c26 693d e34c 7c3b b927 dfbd 0b53 c23d
00000080: 7c5a c23c f382 b33d e465 d5be 4780 c7bc
00000090: d64d ccbc 5d04 a7bd 593a 4d3e 8b5c 883d
000000a0: 6c79 463e 792f 21bf 809f 66bd 510f e0bb
000000b0: f99b 5a3e bdbc dfbe bd4d a3bf cc4a 143e
000000c0: 1569 49bd 420e 253d c269 a7bb ed6e a03e
000000d0: 4eaf bebd 1bf0 a43e 83f5 a93d e735 d13b
000000e0: f1f9 0dbf be54 1cbe 1cba 27be 9bfc 703d
000000f0: b1cc b7bd 3c47 8fbe 5998 31bd 983f 283e
00000100: c846 313d 1b8d 43bd 1519 efbe 3e8f 543d
00000110: 693c 9e3d 07be 183e 0483 02bf 3585 1abf
00000120: 4f4e 6c3d d099 283c 74f8 093e e305 bb3d
00000130: 62e1 0ebe f132 0e3e 3125 85bd 40c3 5cbf
00000140: 5f83 24be a7fb eb3e 2a1a 97be 0846 adbf
00000150: cfd0 efbc 2f78 2f3e 2dd8 453c 730b bfbe
00000160: 3e05 d3bd 484c 99ba ec13 88bd cacd a4bc
00000170: 95e5 973d 7a5e 4e3e 6ca2 4cbf 3808 903e
00000180: ab3b 2d3d e05b fabe 25d3 04bf d0e3 16be
00000190: 980c 533e 177d 873e 5781 15bf 12bf f3bd
000001a0: d92d 383d 1eb5 92be 9947 693d 776f 38bf
000001b0: c815 fcbe 9956 5c3d 3c19 b53b d6ec 7b3d
000001c0: 2bb0 f43d 76cf c93d 412b e93d c2aa f43a
000001d0: 7940 813d 44d5 9b3d 5821 553d e22a f33d
000001e0: 9b6d 053e 18e9 753c 671f 973d cfca 3d3d
000001f0: e52f 8b3d e51e 143d 5cd3 cebc 876e 77ba
00000200: 6977 3b3c 0e03 5bbc c5a5 293d 19d9 f33e
00000210: 5876 35bf d751 eebe 75cf 31bf 773e 11c0
00000220: 166d a03d 93e3 043d aca8 c93d 0803 903d
00000230: a65e 79bc ab9f 9d3d ff35 f63d 491c c93d
00000240: 7796 233e 65cd 283e 03cd c8bc 0554 03bc
00000250: 402b 01bd f347 1fbf dd10 d7bb a5be a8be
00000260: 2179 febd c906 1bbf c562 363e be55 293e
00000270: e015 9abe 591e 3bbf e8cf a53e ada6 5ebe
00000280: 91fc edbe 0c40 02bf 75a0 a4be 4c00 e1be
00000290: 857f 84be cb37 a2bd 3e5d 1dbd a0c9 b2be
000002a0: 26ba 60be 5738 84bd 0ce7 c43d 40f4 1abe
000002b0: 9d58 df3d b2ad 63be 9831 98be a203 bd3d
000002c0: b976 073e d1fd 3cbf 3a4f c2be c11f 7d3c
000002d0: e4cd 6b3e 19c8 163e 3674 9b3e 5d2c a43b
000002e0: d97d 26be e26e e63c 8580 453d 15d8 e03c
000002f0: a033 d0bb 0e63 05bc 9f89 b53e a2fa f63c
00000300: 0bdf b0bd b1e1 d3be d3c0 28c0 c506 1b3d
00000310: 2e81 dfbc 220a 643d 0405 a3bd 50d2 d2bb
00000320: 4b06 e53c cb9e 7f3d dbe8 063d c8f5 9d3d
00000330: a480 2e3d 0495 ec3d 7a29 d63d d6e9 b83d
00000340: bd55 563e 9399 293e 4d1b 92bb 27c3 153d
00000350: a819 a73d 48e2 0f3e ea58 c73d 5f44 ef3d
00000360: 2958 8e3c 4b30 233a 1f76 963b d516 263e
00000370: 5e1f fe3c f6dc 473b 6f13 5cbd 706d 38be
00000380: cb23 2abc 6ddf 89be 8b02 a43e 284b c5be
00000390: 4761 dcbe c913 d53d b255 b73d 5b70 303e
000003a0: 630d c0bd ed4a 953d 0866 15be b2d3 d4bd
000003b0: 2a52 6d3e 5d53 93be 2116 14bf ac89 b2bd
000003c0: 89cf 403e e238 963e 2eec 68be 60df 62be
000003d0: 94eb 17bd c10f 47be 425e bc3e d3b4 0abf
000003e0: 4a06 15bf bf77 2a3e 3fe8 dfbd 6b49 56be
000003f0: 8be5 58be 2ed7 00bd e9a9 cbbc bbd4 29be

fc1.bias f4 [64]
0.16560936 0.026820976 -0.052155547 -0.037889536 0.16514872 0.034726992 -0.22933224 0.06881225
0.020868823 -0.21643637 0.08279881 0.15944235 0.18892436 0.28106743 -0.04979633 -0.114100866
0.041202698 0.06183165 -0.031315956 -0.23307644 -0.109342545 0.071987316 -0.029537724 -0.023157954
-0.014629171 0.27061 -0.05490192 -0.0823198 0.046080027 0.13467622 -0.08378902 -0.11923266
-0.006752679 -0.042026505 0.008876363 0.028281257 -0.055302586 0.020172792 -0.075528495 0.03945609
-0.13149597 -0.13023955 -0.014856487 -0.004503026 -0.11027016 -0.04692231 0.07194564 -0.23623519
-0.27965224 -0.011161708 -0.23979388 0.036105145 -0.07795769 -0.030430289 -0.18018518 -0.06628654
0.14010084 -0.09541195 -0.1538871 -0.03475461 -0.04721244 0.051721174 0.09718123 -0.0009762229
00000000: 8095 293e aab7 db3c 0ea1 55bd 0f32 1bbd
00000010: bf1c 293e e43d 0e3d 12d6 6abe 70ed 8c3d
00000020: 18f5 aa3c 7fa1 5dbe 6c92 a93d db44 233e
00000030: 6375 413e 12e8 8f3e 3df7 4bbd b7ad e9bd
00000040: 29c4 283d 2f43 7d3d 2945 00bd 97ab 6ebe
00000050: fcee dfbd 166e 933d 19f9 f1bc c0b5 bdbc
00000060: 31af 6fbc 658d 8a3e d6e0 60bd 4997 a8bd
00000070: 69be 3c3d 90e8 093e 9499 abbd 4130 f4bd
00000080: 9445 ddbb fc23 2cbd 2a6e 113c 18ae e73c
00000090: f784 62bd 6941 a53c afae 9abd b69c 213d
000000a0: e1a6 06be 845d 05be 9f68 73bc 1f8e 93bb
000000b0: 52d5 e1bd 9c31 40bd 3c58 933d a3e7 71be
000000c0: 942e 8fbe 99df 36bc 878c 75be fde2 133d
000000d0: 48a8 9fbd f148 f9bc 7782 38be 3dc1 87bd
000000e0: 9876 0f3e 5767 c3bd 9494 1dbe da5a 0ebd
000000f0: d561 41bd 95d9 533d f406 c73d 36e9 7fba

fc2.weight f4 [64, 64]
0.025573786 0.20854701 0.23340422 0.22405098 -0.21207799 -0.109660804 0.008665938 -0.1489185
0.024765152 0.31742337 0.37739104 -0.1306153 0.025696024 -0.057093807 -0.006116073 -0.02924127
-0.36737832 0.3031461 -0.18709904 0.24166995 0.35535714 -0.33266532 0.009234397 0.09814191
-0.09995658 -0.03642217 0.33506617 0.022078313 0.24821602 -0.107401386 0.3385327 -0.13048632
0.07615058 0.14257343 0.11509417 -0.11009812 0.2170704 -0.013014481 0.13547859 -0.1825197
-0.057298247 -0.39838248 0.41122392 0.20639145 -0.22676213 0.031539977 0.0034838165 0.15732943
0.10554477 -0.072079934 -0.0705801 -0.17369835 0.021136617 0.24705526 -0.2601511 -0.12635039
0.23069806 0.2865011 -0.32591844 -0.10748733 0.037870675 0.041229263 -0.14925987 0.071020626
-0.07247055 -0.018428922 -0.33426964 0.30076563 0.21340846 0.19933085 0.068651415 0.2243721
-0.39320052 -0.04522179 0.15819874 0.15606119 -0.091128476 0.056250986 0.07138405 -0.03698836
0.05022538 0.09427816 -0.15060438 -0.357776 -0.059990928 0.23109706 0.049413122 -0.03917885
-0.008503587 0.1902142 0.10328737 -0.15577316 0.12890266 0.07767317 -0.0033494646 -0.12870724
-0.07734723 0.55687934 0.035828747 -0.028322957 -0.15697108 0.12759565 0.107934006 -0.14825532
0.31600437 -0.00078399794 -0.23721604 0.029717453 -0.30920735 -0.21807222 -0.120969854 -0.053581864
0.045221113 0.09143999 0.1450915 0.19015382 -0.05057209 -0.12829931 -0.12901059 -0.053073857
-0.2169182 0.11510189 0.27089274 0.082910225 -0.1610119 -0.55353767 0.06534847 0.13886322
-0.322802 -0.6771473 0.3454869 0.17643033 -0.40015426 -0.23316342 -0.14831445 -0.12283745
0.080014475 -0.05231226 -0.08339512 0.035573486 0.114104226 0.23877887 -0.023868462 0.20038772
0.10514485 -0.116314165 -0.29604807 -0.16234288 -0.71031445 -0.41498902 0.11989543 0.3919453
-0.2762425 -0.27016306 0.3317761 0.28116265 -0.59524506 -0.3562135 -0.072015576 0.04179395
-0.6476768 0.24835561 -0.19300598 0.375652 0.061891373 0.07207706 -0.1703213 -0.37742722
0.053121757 0.26845527 -0.22288294 -0.09436828 -0.3923452 0.38213974 0.123334914 -0.14687748
0.22374299 -0.4795983 -0.1187341 0.20301211 -0.68379045 0.14857495 -0.11036675 0.12573801
-0.10303519 -0.20350356 0.012309332 0.43525964 -0.2074532 -0.34060705 -0.26166683 -0.19549626
0.28366154 -0.34582415 0.28549036 -0.74427646 0.13409492 0.04731155 -0.14355886 -0.13302109
-0.29226652 0.15236843 -0.0018021315 -0.33787516 -0.04297444 0.09948882 0.043134257 0.014709899
-0.23538586 0.117666535 -0.497588 0.04859487 -0.11079666 -0.008922268 -0.05088777 -0.16381073
0.18264578 -0.38845494 -0.13518994 -0.25608623 -0.0007997535 -0.56687653 0.25100836 0.101290405
-0.044686828 -0.9953785 0.14909802 -0.566455 -0.2875248 0.39967224 -0.4841825 -0.08387652
0.27989247 0.20819709 -0.31840247 -0.18843156 -0.6343787 0.052370142 -0.010167535 0.17260876
-0.036837455 0.004669773 0.010581395 -0.10516276 0.15819125 -0.39953285 -0.06164612 -0.11332751
-0.60102516 -0.3315318 -0.5809482 0.27829027 -0.21145786 -0.46430668 -0.23980628 0.10102719
00000000: 1e80 d13c 598d 553e 8401 6f3e 9f6d 653e
00000010: f92a 59be d895 e0bd 94fb 0d3c 177e 18be
00000020: 4ae0 ca3c 5185 a23e 6639 c13e 04c0 05be
00000030: 7880 d23c 32db 69bd 5769 c8bb 638b efbc
00000040: 0319 bcbe f735 9b3e e496 3fbe 5478 773e
00000050: 5ff1 b53e 1c53 aabe de4b 173c a0fe c83d
00000060: 09b6 ccbd 6a2f 15bd cb8d ab3e 94dd b43c
00000070: 572c 7e3e 42f5 dbbd 2854 ad3e 359e 05be
00000080: d6f4 9b3d c5fe 113e 7eb6 eb3d 207b e1bd
00000090: b447 5e3e b13a 55bc e6ba 0a3e 72e6 3abe
000000a0: 91b1 6abd caf8 cbbe f18b d23e 4858 533e
000000b0: 5534 68be 1030 013d be50 643b f71a 213e
000000c0: db27 d83d a59e 93bd 4d8c 90bd fbdd 31be
000000d0: b326 ad3c 0efc 7c3e 8632 85be ff61 01be
000000e0: 1d3c 6c3e 46b0 923e c8de a6be 5122 dcbd
000000f0: 481e 1b3d 04e0 283d 94d7 18be 4373 913d
00000100: 716b 94bd 40f8 96bc 6425 abbe f4fd 993e
00000110: bf87 5a3e 631d 4c3e 1d99 8c3d cdc1 653e
00000120: 9451 c9be 7c3a 39bd dafe 213e 81ce 1f3e
00000130: 91a1 babd 6f67 663d cd31 923d 1b81 17bd
00000140: 21b9 4d3d e814 c13d 0938 1abe 6a2e b7be
00000150: 0cb9 75bd b5a4 6c3e 6a65 4a3d 007a 20bd
00000160: a152 0bbc 83c7 423e 5488 d33d 0083 1fbe
00000170: 0fff 033e 1c13 9f3d b182 5bbb d5cb 03be
00000180: 3968 9ebd a58f 0e3f 2ac1 123d 8c05 e8bc
00000190: 07bd 20be 6fa8 023e 810c dd3d 3ed0 17be
000001a0: 53cb a13e 3685 4dba c3e8 72be 0472 f33c
000001b0: 6d50 9ebe 534e 5fbe 0bbf f7bd a878 5bbd
000001c0: c639 393d e444 bb3d de92 143e afb7 423e
000001d0: ae24 4fbd e560 03be 5a1b 04be f963 59bd
000001e0: ce1f 5ebe 8aba eb3d 74b2 8a3e d6cc a93d
000001f0: 4ee0 24be a5b4 0dbf 6bd5 853d 2932 0e3e
00000200: 4e46 a5be 8759 2dbf a9e3 b03e 27aa 343e
00000210: 05e1 ccbe 64c2 6ebe bedf 17be 3392 fbbd
00000220: a1de a33d 6145 56bd 10cb aabd 81b5 113d
00000230: 7aaf e93d 7382 743e cb87 c3bc 7032 4d3e
00000240: 2f56 d73d 1f36 eebd 9d93 97be 363d 26be
00000250: 2bd7 35bf 7179 d4be bc8b f53d 0ead c83e
00000260: a86f 8dbe d052 8abe 8fde a93e 8df4 8f3e
00000270: fb61 18bf 9e61 b6be e77c 93bd 2230 2b3d
00000280: 26ce 25bf ef50 7e3e 5ca3 45be 7555 c03e
00000290: cf81 7d3d 239d 933d b568 2ebe 243e c1be
000002a0: 3396 593d f872 893e 6d3b 64be 2844 c1bd
000002b0: 78e1 c8be d2a7 c33e 0497 fc3d 0d67 16be
000002c0: e21c 653e e98d f5be dd2a f3bd 68e2 4f3e
000002d0: e40c 2fbf 0824 183e f607 e2bd 77c1 003e
000002e0: 1d04 d3bd 3d63 50be 15ad 493c 5ada de3e
000002f0: 9d6e 54be 0c64 aebe 32f9 85be 2c30 48be
00000300: 163c 913e dd0f b1be cb2b 923e e788 3ebf
00000310: 2e50 093e c1c9 413d 1801 13be ae36 08be
00000320: f5a3 95be 7806 1c3e 8035 ecba f9fd acbe
00000330: f705 30bd cbc0 cb3d 8cad 303d ca01 713c
00000340: fe08 71be 27fb f03d dbc3 febe 6a0b 473d
00000350: 5ce9 e2bd b42e 12bc b26f 50bd 00be 27be
00000360: 7f07 3b3e 91e3 c6be 3b6f 0abe bc1d 83be
00000370: 8da6 51ba d21e 11bf 2b84 803e 5871 cf3d
00000380: 8909 37bd 20d1 7ebf 27ad 183e 3203 11bf
00000390: 7336 93be d7a1 cc3e c5e6 f7be 74c7 abbd
000003a0: 114e 8f3e 9e31 553e a605 a3be 34f4 40be
000003b0: a466 22bf 1382 563d bc95 26bc 5ac0 303e
000003c0: dfe2 16bd e504 993b 965d 2d3c 935f d7bd
000003d0: e3fc 213e 928f ccbe a480 7cbd 4118 e8bd
000003e0: c9dc 19bf 89be a9be 05b9 14bf 107c 8e3e
000003f0: 6988 58be 9bb9 edbe c78f 75be 58e7 ce3d

fc2.bias f4 [64]
-0.20649546 0.13155232 0.012501603 -0.13126366 0.080014534 -0.3866155 -0.09736038 0.059670817
0.46586514 0.7094087 -0.22941811 0.46309337 0.45095748 -0.19015637 0.08823471 -0.063789874
0.001804379 0.25733358 -0.105507106 0.41610113 0.18573374 0.7901724 -0.12499351 -0.020407086
-0.03940546 0.01721969 -0.15792681 0.005383496 -0.104558885 0.14416726 0.1756791 0.39795086
-0.18884285 0.21431783 0.10261555 0.09641557 0.034608357 -0.13930315 0.16604593 -0.06542593
0.18815228 0.7719742 0.6168786 -0.17157196 0.08132254 -0.09476825 0.55999595 0.13891652
0.07298547 0.049372103 -0.091554485 0.68986875 0.097417906 0.06761057 0.037480313 -0.02893201
-0.18902028 -0.1640411 0.15125158 0.027763434 -0.103545494 0.42661732 -0.06293193 -0.037590783
00000000: 8c73 53be a7b5 063e 86d3 4c3c fb69 06be
00000010: a9de a33d 78f2 c5be e164 c7bd 6369 743d
00000020: e085 ee3e cf9b 353f 95ec 6abe 931a ed3e
00000030: e6e3 e63e 5ab8 42be 66b4 b43d 44a4 82bd
00000040: ea80 ec3a 3ac1 833e 1c14 d8bd 350b d53e
00000050: fc30 3e3e bd48 4a3f 99fc ffbd c32c a7bc
00000060: 9f67 21bd 4f10 8d3c 91b7 21be 0a68 b03b
00000070: f822 d6bd 95a0 133e 39e5 333e 37c0 cb3e
00000080: 0560 41be 2276 5b3e 1a28 d23d 8775 c53d
00000090: 7ec1 0d3d 7ca5 0ebe f207 2a3e 08fe 85bd
000000a0: feaa 403e 1aa0 453f c2eb 1d3f 8fb0 2fbe
000000b0: 6f8c a63d db15 c2bd e55b 0f3f 2240 0e3e
000000c0: 6879 953d 673a 4a3d eb80 bbbd 3d9b 303f
000000d0: 0a83 c73d 6977 8a3d f584 193d d302 edbc
000000e0: 888e 41be 64fa 27be b2e1 1a3e 2470 e33c
000000f0: a90f d4bd 966d da3e 75e2 80bd cbf8 19bd

fc3.weight f4 [4, 64]
-0.17966387 0.18922834 0.057889342 -0.3692522 -0.039213076 -0.20372847 0.18975188 -0.69817483
0.14424738 0.1998029 -0.15738751 0.23905462 0.36678478 -0.29473314 0.22352953 -0.18024826
-0.05509825 0.17800944 -0.0035677012 0.12289511 -0.058680844 0.26445585 -0.10002608 0.1889658
-0.765158 -0.30064657 -0.1578874 0.06263784 -0.18699293 -0.017813561 0.1698727 0.18037151
-0.12755616 0.18813302 0.18399958 -0.054665074 0.10664267 -0.3029586 0.18899557 0.25573444
0.074437454 0.20688845 0.15830559 -0.23492944 0.05410855 -0.021357281 0.23817886 0.20639484
0.55473757 0.13398284 0.25803208 0.19359432 0.05165837 0.09390918 0.2771031 -0.11621104
-0.5765254 -0.82847863 0.25562218 0.3054594 0.020470375 0.17880201 -0.052528847 0.49440226
-0.052231148 0.2582783 0.2251417 -0.24475889 0.20240434 -0.22869778 -0.27832037 0.083287776
-0.034473654 0.20642899 -0.29743415 0.21120039 0.268372 -0.1393746 -0.44972855 -0.016159302
-0.07818994 0.19103663 -0.073574364 0.08161749 0.04363717 0.30527538 -0.49404848 0.31536698
0.14601351 0.19435072 -0.014082034 0.04494037 -0.2895904 0.11948068 0.20198324 0.20712535
-0.30070847 0.25589636 0.31055793 0.13086784 0.25985092 -0.24813569 0.13136771 0.28857917
0.18468904 0.23695035 0.15137315 -0.1106703 0.09843311 -0.14060138 0.19812375 0.34584436
0.68353814 0.14883046 0.0066769435 0.14852472 0.2514322 0.16680619 0.28427494 0.06535948
-0.18790017 0.06978584 0.2736331 0.22319072 -0.1545509 0.15754983 -0.04303364 -0.4038793
-0.16616042 0.28005904 -0.061519705 -0.42383468 0.17111441 -0.13519374 0.26659548 0.119547844
0.1296215 0.21099044 -0.36832586 0.1600227 0.29259205 -0.16946691 0.16282573 -0.07041039
-0.38641012 0.08032278 -0.041689996 0.24132612 0.048613317 0.28797093 -0.34444883 -0.077652484
-0.0038619079 -0.09137187 0.033063017 0.348821 0.43407577 0.32047856 0.3847587 0.05619895
-0.12185409 -0.026945865 0.39787024 0.22195439 -0.32930082 -0.24440028 -0.21843658 0.28072453
0.080090165 0.26090077 0.25233707 0.048685458 0.3331794 -0.17387947 0.19589598 0.12042256
0.21015576 0.15697339 0.3610614 0.27146554 -0.22018635 0.24314006 0.00278755 0.013490834
-0.32371354 -0.09449863 0.20100912 -0.19113337 0.0717931 0.2444116 0.18105371 -0.32553244
-0.11474508 -0.0067497417 -0.45538858 -0.254405 -0.85647696 -0.25285852 0.23155878 0.27392927
0.13405183 0.24656835 0.049069278 0.12622342 0.23807517 -0.062129464 0.093234785 -0.6533589
0.36430848 0.17896935 0.07917042 0.16311854 0.18850757 0.26680705 -0.18730094 0.7451542
0.15464833 -0.66617346 0.07007423 0.60181487 0.2909525 -0.061912715 0.1911742 0.18253231
-0.38098362 0.31530637 0.13044253 0.060862716 -0.034818377 -0.036576286 0.25833887 0.2866749
-0.049732555 0.2552213 0.24507488 -0.4073443 -0.15210906 -0.2540798 0.17709352 0.17375398
0.7235435 -0.030067908 -0.008783364 0.21597691 0.0334443 0.039582327 0.41966203 0.2281454
-0.156103 -0.036915362 0.19116457 -0.32672763 -0.2704822 0.1879054 -0.11987279 -0.47912925
00000000: cef9 37be 13c5 413e 601d 6d3d a00e bdbe
00000010: e49d 20bd 329e 50be 514e 423e 96bb 32bf
00000020: 96b5 133e 2299 4c3e 312a 21be bcca 743e
00000030: 37cb bb3e 43e7 96be ede4 643e 0093 38be
00000040: b4ae 61bd 1b48 363e 18d0 69bb 6eb0 fb3d
00000050: 535b 70bd c266 873e 79da ccbd 4080 413e
00000060: 65e1 43bf 59ee 99be 3cad 21be 4548 803d
00000070: 137b 3fbe bfed 91bc 1cf3 2d3e 4fb3 383e
00000080: 159e 02be f1a5 403e 636a 3c3e 7ce8 5fbd
00000090: 7967 da3d 641d 9bbe 0e88 413e a0ef 823e
000000a0: aa72 983d 91da 533e dc1a 223e 5891 70be
000000b0: eda0 5d3d 77f5 aebc 29e5 733e 2b59 533e
000000c0: 4803 0e3f cc32 093e c81c 843e 973d 463e
000000d0: ba97 533d 7553 c03d 75e0 8d3e 0e00 eebd
000000e0: 2b97 13bf 2d17 54bf e9e0 823e 2d65 9c3e
000000f0: 7db1 a73c e017 373e 7d28 57bd 4b22 fd3e
00000100: 54f0 55bd 0e3d 843e 8c8b 663e 13a2 7abe
00000110: 1543 4f3e c02f 6abe 0280 8ebe c892 aa3d
00000120: 3f34 0dbd 1f62 533e 4a49 98be ea44 583e
00000130: 0e68 893e 37b8 0ebe d242 e6be 8360 84bc
00000140: 0c22 a0bd 1b9f 433e 28ae 96bd 1227 a73d
00000150: e4bc 323d 0e4d 9c3e ecf3 fcbe c877 a13e
00000160: 9184 153e e003 473e 55b8 66bc 6513 383d
00000170: 3145 94be 49b2 f43d b2d4 4e3e ab18 543e
00000180: 76f6 99be d904 833e 7301 9f3e 3802 063e
00000190: 2e0b 853e 4817 7ebe 4285 063e a6c0 933e
000001a0: 201f 3d3e 1da3 723e 9001 1b3e 1ca7 e2bd
000001b0: 4c97 c93d cff9 0fbe f4e0 4a3e 8312 b13e
000001c0: 5bfc 2e3f 0367 183e 43ca da3b dd16 183e
000001d0: b9bb 803e 3ecf 2a3e 7c8c 913e 31db 853d
000001e0: e768 40be e1eb 8e3d a319 8c3e 1c8c 643e
000001f0: 9742 1ebe be54 213e 0b44 30bd 45c9 cebe
00000200: f525 2abe e663 8f3e 16fc 7bbd dc00 d9be
00000210: 9e38 2f3e 3a70 0abe 347f 883e 80d5 f43d
00000220: 80bb 043e e10d 583e 3595 bcbe fedc 233e
00000230: a0ce 953e bc88 2dbe cabb 263e 5333 90bd
00000240: 8cd7 c5be 4580 a43d 21c3 2abd 321e 773e
00000250: c21e 473d ed70 933e 995b b0be 4408 9fbd
00000260: 1018 7dbb 2d21 bbbd 166d 073d ab98 b23e
00000270: 2e3f de3e c415 a43e 18ff c43e df30 663d
00000280: a38e f9bd 93bd dcbc a6b5 cb3e 0348 633e
00000290: 1e9a a8be 1144 7abe d7ad 5fbe 20bb 8f3e
000002a0: 5006 a43d c994 853e 5332 813e 676a 473d
000002b0: 7e96 aa3e 760d 32be f598 483e 1aa0 f63d
000002c0: 1233 573e a2bd 203e 0add b83e 88fd 8a3e
000002d0: 8878 61be b5f9 783e 54af 363b a908 5d3c
000002e0: c8bd a5be 7f88 c1bd 56d5 4d3e 77b8 43be
000002f0: 4308 933d 0947 7a3e 2566 393e 30ac a6be
00000300: 78ff eabd f02c ddbb b128 e9be 5f41 82be
00000310: 1342 5bbf ac76 81be bf1d 6d3e 7540 8c3e
00000320: e244 093e 6a7c 7c3e defc 483d b640 013e
00000330: fac9 733e 777b 7ebd e1f1 be3d 8742 27bf
00000340: a486 ba3e be43 373e 1a24 a23d 8c08 273e
00000350: 2108 413e ef9a 883e d1cb 3fbe 6dc2 3e3f
00000360: 225c 1e3e 588a 2abf 1483 8f3d 8a10 1a3f
00000370: baf7 943e 3098 7dbd 2bc3 433e c0e9 3a3e
00000380: 4910 c3be d66f a13e ba92 053e 2f4b 793d
00000390: b79d 0ebd 04d1 15bd fe44 843e 0dc7 923e
000003a0: 5db4 4bbd 5eac 823e e9f4 7a3e 6f8f d0be
000003b0: 7ac2 1bbe bf16 82be 0158 353e 90ec 313e
000003c0: 263a 393f f950 f6bc 19e8 0fbc 0d29 5d3e
000003d0: e4fc 083d 1421 223d f1dd d63e f39e 693e
000003e0: 77d9 1fbe 9034 17bd a5c0 433e d848 a7be
000003f0: a57c 8abe 466a 403e de7f f5bd 6e50 f5be

fc3.bias f4 [4]
0.58128405 0.40533674 0.33148587 0.34849054
00000000: 08cf 143f 4c88 cf3e 84b8 a93e 5a6d b23e
