checkpoint.pth (torch, 29271 bytes, 6 tensors)

fc1.weight f4 [64, 37]
00000000: 13cb 733c a45e 363d e82f 9ebd 2d09 50bd
00000010: aa54 86bc b885 213e b345 46bd 1e3f 043e
00000020: 442b c83c 567d 693c c4ac b43c a275 20bd
00000030: e8d3 b5bd b4c7 afbe fb08 86be 15b5 f43d
00000040: 7f03 2abe f62f 3e3c 71e7 3d3e dfdc 24bd
00000050: b252 d43d 910e 9e3d 95dc dbbd c63c 843d
00000060: 5e63 edbd b816 10be 082b 0a3e 0380 c7bd
00000070: b021 6a3e 74e9 c93c 910e 183e 5eaa 10be
00000080: 30f7 f3bd 3577 8ebe d301 46be 3b73 8bbe
00000090: cf0a 91bc 49be 263e 7aae 423d 50f2 0e3e
000000a0: 6c26 1abe 9201 5bbe f1fd c2bd 2f73 1b3e
000000b0: be0a b0bd cdbd b6be 325d 75be 027d b63c
000000c0: eb75 e8bc b26e 34be 6de8 8f3e c987 5ebd
000000d0: 9067 543e 3d3c cb3d d648 abbd 027d b7bd
000000e0: 53b6 b33d 84d1 2abe 8a2e 67be 8520 67bd
000000f0: f91f 2a3e 493b b53d e4e1 0ebe d0aa 2f3e
00000100: ba09 c63c 8806 24be 4a71 a0bc 6546 323d
00000110: 5959 1fbd 41f1 763e 24b9 17be 3b0c 25bf
00000120: 2da5 42bd 2ae4 47bd ddfd c2be c1d1 20be
00000130: f02a 793e c0e8 00be ac40 03be 9f5c e2be
00000140: 2643 a5be ce66 903e b535 fcbe 04d5 8ebf
00000150: 6207 92be f055 84be b0d7 113c c3b9 5ebe
00000160: 42e9 cebe ebed aebe 3423 5ebc adc2 0b3e
00000170: 11ca 78be c3bb 8d3e 7718 9a3d cc19 0fbe
00000180: dd42 7cbe 2bde 15bf cb5e dfbe 19c6 d4be
00000190: 7983 0fbd e530 a03e 01c4 9dbe 733d b8bf
000001a0: bd7a 483e fd83 bbbe 2821 89be 1d9e 5bbf
000001b0: 37aa 053e 65e3 773e 9dd2 e43a 1666 043e
000001c0: a1c4 eb3d 0af4 1c3e 5a15 863d b957 cbbd
000001d0: a0d1 5e3d 25e3 883d 6b7f b03d 305e bb3d
000001e0: 91a4 473d 496c 853d 3a7a 983d 24eb b23d
000001f0: b9a1 c83d 5ca6 2b3d 3061 3cbc c9a1 fe3c
00000200: 55e6 5d3c 591b fbbc 7323 51bd c3d1 ed3e
00000210: 29d8 67bf 25c8 fdbe 6316 13bf e532 29c0
00000220: ece2 8a3d 5c8f 0a3e cab9 8d3d baa0 a63d
00000230: 8a3f f43b b6ad f43d f207 103e d7c6 ea3d
00000240: 5032 293e b9bd 843d 1968 0b3c 544a 1c3b
00000250: 5e06 b0be b94e b4be 30e2 94be 14d7 a2be
00000260: 9378 a2bf 1c70 433c 4192 ffbd 374e 87be
00000270: f423 c2be 1f08 62bf 58d4 d2bd d675 17be
00000280: ac9c 2bbf c567 05bf 0f96 76bd a97e 293d
00000290: 838a d5be 1651 20bf e94d 74be d463 92be
000002a0: 91fe 3abf 5354 f23d 99a7 9abb 7893 0abf
000002b0: 2ef1 29be 8720 21bb b036 94be 4c6c 903d
000002c0: b756 d8be 9f85 90bf 0b4b 1fbf b3df 4fbe
000002d0: cfb2 ba3e 5cca c0be 6321 7c3d 2d1d cd3e
000002e0: e388 6ebc f9c9 e43d b28f 933d b7a9 6abc
000002f0: 6b23 403d 2bfe 6abd 97a0 e73e e119 23bf
00000300: b138 cdbe f39b f5be cf15 26c0 66b8 f73b
00000310: 148b 3c3d d4d7 433b f4aa 843d 8869 f3bb
00000320: 6c48 243c 6780 dd3d 9a65 d43d dc31 2c3d
00000330: 5838 773c b0ca 283e 4c38 bc3d bf0b 2e3e
00000340: 3e86 263e a8df c33d ebdb 2cbd 7b0a 023e
00000350: b900 123e b352 ea3d db3e eb3d d27b 673d
00000360: f19e 313d 13f7 a13d 4924 2a3e 1a20 363e
00000370: 99a0 3abd 5021 98bc 4554 19be f9bf 37be
00000380: b31d 113d bcc1 6f3b 0728 97be de99 03bf
00000390: e979 8f3e 3669 f3bd b29b 09be 3465 15ba
000003a0: e941 d1be 4b72 853e 8bc8 583d b677 79be
000003b0: bef6 3bbd 44e9 87be 9354 4cbd 0e7b bfbd
000003c0: 9868 643e 7418 e23e 1f63 f8be b895 413e
000003d0: d0c6 e83d 2f68 2abe 9248 913e 5cea 5bbf
000003e0: cfd4 6bbe e943 b93d 656e 5d3e 0169 843e
000003f0: 086e 81be 03f5 243d 787c 1f3e f8ac 10be
0.01487996 0.04452385 -0.07723981 -0.05079 -0.016397793 0.15773666 -0.048406314 0.12914702
0.024434693 0.014251074 0.022055037 -0.039174683 -0.088783085 -0.3433205 -0.26178727 0.11948601
-0.16602896 0.0116081145 0.18545319 -0.0402497 0.103673354 0.07717622 -0.10735432 0.06456904
-0.115912184 -0.14071167 0.13492978 -0.09741213 0.22864413 0.024647452 0.14849307 -0.1412749
-0.11912382 -0.27825323 -0.19336633 -0.2723635 -0.01770535 0.16283526 0.047529675 0.13959622
-0.1505372 -0.21387318 -0.09521092 0.15180658 -0.08595799 -0.35691682 -0.23961332 0.022276405
-0.02837654 -0.17620352 0.28107014 -0.054328714 0.20742631 0.09923599 -0.08363502 -0.0895939
0.0877501 -0.16681486 -0.22576347 -0.056427497 0.16613759 0.08849198 -0.13953358 0.17155004
0.02417456 -0.16018116 -0.01958527 0.043524165 -0.038903568 0.24115469 -0.1481672 -0.6447179
-0.047520805 -0.04880158 -0.38084307 -0.15705015 0.24332786 -0.12588787 -0.12817639 -0.4421129
-0.32277793 0.28203434 -0.49259725 -1.1158757 -0.28521258 -0.25846815 0.008901522 -0.2175055
-0.40412337 -0.34165892 -0.013558198 0.13648482 -0.24295832 0.27682313 0.075241975 -0.13974684
-0.24634881 -0.58542126 -0.4362701 -0.41557387 -0.03503749 0.31287304 -0.30813602 -1.4393753
0.19578071 -0.36624137 -0.2678311 -0.85788137 0.13053213 0.24207838 0.0017457787 0.12929568
0.11512113 0.15327469 0.06547041 -0.09928841 0.054399133 0.066839494 0.08618053 0.09148824
0.048740927 0.065147944 0.07445188 0.08736256 0.09796471 0.0419067 -0.011497781 0.031083005
0.013543685 -0.030652689 -0.051059198 0.46449098 -0.9056421 -0.4956676 -0.57456034 -2.6437314
0.06781563 0.1353125 0.06920202 0.08136125 0.0074538635 0.11947195 0.14065531 0.11463707
0.16523099 0.06481499 0.0085087055 0.0023848014 -0.34379858 -0.3521631 -0.29078817 -0.31804717
-1.2693046 0.011928584 -0.124790676 -0.2642686 -0.37918055 -0.8829364 -0.102944076 -0.14791045
-0.6703594 -0.52111465 -0.0602017 0.04138056 -0.4170724 -0.6262373 -0.23857845 -0.28591788
-0.7304469 0.1183249 -0.004719686 -0.5413127 -0.16595909 -0.0024586038 -0.28947973 0.07051906
-0.42253658 -1.1290778 -0.6222388 -0.20300178 0.36464545 -0.37654388 0.061555278 0.40061322
-0.0145590035 0.11171336 0.07205142 -0.01432269 0.046908777 -0.0573713 0.45239708 -0.63711363
-0.40082315 -0.47970542 -2.595081 0.007559824 0.046031073 0.0029883282 0.06477919 -0.007428352
0.010027032 0.108155064 0.103709415 0.042039737 0.015089117 0.16483569 0.09190425 0.16996668
0.16262147 0.095641434 -0.042201918 0.1269931 0.14258088 0.11441555 0.11486598 0.05651457
0.04336447 0.07908454 0.16615404 0.17785683 -0.045563314 -0.018570572 -0.14973553 -0.17944326
0.035428714 0.003658398 -0.29522726 -0.5140666 0.28022698 -0.11885302 -0.134383 -0.00056989794
-0.40870598 0.2606376 0.052925628 -0.24362072 -0.04588961 -0.26545155 -0.049885344 -0.09349643
0.22305524 0.4415928 -0.48513123 0.1890477 0.113660455 -0.16641305 0.2837568 -0.8590448
-0.23030399 0.09046156 0.21624143 0.25861362 -0.2527926 0.040272724 0.15574825 -0.14128482

fc1.bias f4 [64]
00000000: bd1d fd3c f35c 32bd 0ca6 5cbd f949 3dbd
00000010: 1040 fa3d 5a73 183d 803a 2abe 1fa9 d93d
00000020: aa6f f53d bf36 49be ff2f bb3d 13f0 243c
00000030: 68c4 7b3d 0d2a af3e 8a48 18be d3c1 b6bd
00000040: 699e 3dbd 0a81 8bbd d2cc 3e3c b3c5 39be
00000050: 1690 f2bd 3eb1 0bbd cb3b d23d a728 31bd
00000060: 28e8 65bc 085e 823e cbcf 82bd 8202 acbd
00000070: 4d84 9b3d 13ed 0c3e 6146 7fbc 69d3 38be
00000080: 02a3 323e 6bd1 7fbd fa12 ccbd ac0e 91bd
00000090: a17d 0dbe 9a9d 873c a309 95bc 03fb 4ebe
000000a0: 18e8 81bd da7f 28be 924c d8bb 171a 313e
000000b0: eb2d 823b 444c 52bd 90a4 bfbd 5bf3 94be
000000c0: 11d5 98be 04c0 30bd b847 7fbe e51a 38bd
000000d0: dbb0 eebd 65ad 01be 0eb6 19be d1f3 6cbe
000000e0: ac21 fc3d 1b9a d4bd 3ddf e7bd c8f4 2b3d
000000f0: 25c0 483c af5b 633d 6440 963d 89cf 85bd
0.03089797 -0.043545675 -0.053869292 -0.046213124 0.1221925 0.037219383 -0.16623878 0.106279604
0.11984189 -0.1964979 0.09140014 0.010067004 0.061466604 0.3421177 -0.14871421 -0.08923688
-0.04629365 -0.068117216 0.011645513 -0.18141823 -0.118438885 -0.03410458 0.10265311 -0.04325166
-0.014032401 0.25462365 -0.063872896 -0.08398916 0.07593594 0.13762312 -0.0155807445 -0.18049397
0.17444995 -0.062455576 -0.09964557 -0.070828766 -0.13817455 0.016554642 -0.018193072 -0.20212941
-0.063430965 -0.16455022 -0.006600925 0.17295109 0.003972759 -0.051342264 -0.0935756 -0.29091915
-0.29850057 -0.04315187 -0.24929702 -0.044947524 -0.11654826 -0.12663801 -0.15010855 -0.23139884
0.1231111 -0.10380956 -0.11321876 0.04198149 0.012252842 0.05550736 0.073365 -0.06533725

fc2.weight f4 [64, 64]
00000000: 95e8 d0be d48a f0bc 51ac 553e 8d9d 7e3e
00000010: bea7 8abe 1d30 aabe 0ad5 c6be 28b9 b9be
00000020: aa2e 0f3d d428 643d d2c3 fb3e 7732 28bf
00000030: d5d2 95be e41c 013e 80f4 9abe 43a1 cc3c
00000040: 92fc a0be 2dde c03b acc8 003c c94c 3b3e
00000050: 90ff 7ebe 7b19 7fbd fcde 4d3e d2ee 943e
00000060: 2482 373d c2f0 d6bd b6bd 5b3e 0274 01bf
00000070: 19c4 d9bd 541f edbc b50b 5d3e 9be2 b93e
00000080: 7a99 3a3e 087b 81be 1e45 0f3e 815a 8b3e
00000090: 78fe b2bd e00f 183e 111d e23d 8d66 02be
000000a0: 6e77 6bbd 4051 39bf f743 203f 40ba 333d
000000b0: d8c9 e1be ccef f8bd c2c1 98bd f4ef e93d
000000c0: 81ab 21be 9a3a 143e 4dee 91be e5c4 5d3e
000000d0: e020 8cbd fd27 913d 6f1f f9be 62a9 f9bd
000000e0: 9f5b 4fbe 1291 02be 43b0 1ebf 9770 0cbf
000000f0: f5c6 17bd db7c 01be 39a8 863e 44c4 17be
00000100: b95c 883d a6fb 1c3d c316 a2be 194b 703d
00000110: 3b92 4c3e dc1b 98bd 8de1 813e 4cd0 083f
00000120: e0f5 713d 822c 4d3d 9633 cf3d aea6 1cbd
00000130: 423b 12be ad1b dd3b f0d3 88bb db86 2c3e
00000140: 6a50 dbbc f20d 133e 741b 29be 0e7e 9e3d
00000150: ee26 5c3e 7cc2 59be d687 57be f584 78bc
00000160: f92d d7bc 8e1a 34be 9d03 ebbc 79e9 1fbf
00000170: daf4 7bbd 37f7 e63e a5e0 323e cce6 1e3e
00000180: 3616 c2bc e2c6 4fbe 8c00 06bd 67f3 fb3d
00000190: afa2 b3bd 49b7 e63e 73bc c13d 3598 333d
000001a0: 2049 bc3e fa0a 12bd 4fc6 983e fb96 f03c
000001b0: d469 efbd 141b fcbd d8e8 a83d 8504 efbd
000001c0: 4009 2bbe 01ce 69be e227 ee3c f4df 8ebc
000001d0: f4da 4d3e 4d64 a4be c7a0 d8bd ba88 bc3d
000001e0: e7c4 b93a e9a3 aa3c 3248 223f b9fc 823d
000001f0: 2226 27be a7dc f1be b9ec eebc 285b 0f3e
00000200: 0a59 44be 5810 c3be 64c3 983e c6c4 f73e
00000210: 9740 223e 0312 62be 0a75 83bd 3d31 dc3d
00000220: f978 0a3e a4e1 2cbe 09bc b93e 4890 d0be
00000230: 2dc3 8e3e a569 5bbd 5484 0ebe 6264 723e
00000240: 58a8 2abf 5e48 283e 6614 adbe 823e 74bd
00000250: c80f 68be 4716 98be c47e ee3d af2e 8c3d
00000260: cce4 b3be f4a1 fdbe 2f66 64be 44b7 dcbd
00000270: 434f d53e dabf 92bc 2257 b23e 8cf0 30be
00000280: b708 31bd 135e 5d3e 9e66 843e 7ff4 96be
00000290: 9806 61be 2e03 2bbe fa39 773e 0146 3abd
000002a0: d4d7 d73d 130b 20bf fe89 30be f7cf ec3c
000002b0: 1c11 94bd 267c b63d b862 c83e dea5 47be
000002c0: 6476 ce3d c427 44bf 67f9 c4be 5026 2abe
000002d0: 22c8 d7be 7b2b 3dbe 6af9 d4be 9730 0dbf
000002e0: c948 463d 6220 e3bd 426d 9dbd 66e6 89bd
000002f0: 98d3 1fbd 5d8c efbe b8d0 14be 5e3b 70be
00000300: 545e 3abe 2ec1 c5bd a97c 19be c009 603e
00000310: 4437 553d 80a9 d4be f65f d9be 530f 1f3e
00000320: 1fd4 f4be 431c 69bd 1015 133e 36c4 9fbe
00000330: 6af4 efbd 2c58 743c cdfa 603e 1ef3 80be
00000340: 086c b23e 148d 75be b804 493e af4e 613d
00000350: 6f25 a93d f51c c73e 3558 adbe 7e54 f1bc
00000360: 1702 81be f164 99be f990 b63d 8528 0bbe
00000370: 5978 153e 5446 50be b29f 0e3f 46cb 7ebd
00000380: 8d7d a0be 42a3 bcbe 15ec fabc 3769 eb3c
00000390: 69f9 f23d b52f a1bd 391a c83c e32f 2ebe
000003a0: af66 253f a433 f5bd 2733 fdbd f715 13be
000003b0: 5440 1bbe f9d9 e53d b44b 6f3d 197c ba3e
000003c0: b49c d43e e277 b3be 383a 34bc 59e1 17bf
000003d0: 8210 793e 4111 943e fe7f adbe bea9 d13d
000003e0: 4d57 9e3d 56f4 c03d 64ca adbe c712 fe3e
000003f0: d861 2ebe ae8c 603e 8850 dfbd 8931 8f3c
-0.40802446 -0.029363073 0.20866515 0.24864788 -0.27081102 -0.33239833 -0.3883441 -0.36274076
0.03495661 0.055703 0.49172837 -0.65702003 -0.29262415 0.12608677 -0.30264664 0.02497924
-0.31442696 0.0058858604 0.007860344 0.1829101 -0.24902177 -0.06228016 0.20104593 0.29088455
0.044801846 -0.1049514 0.21459088 -0.5056764 -0.10633106 -0.028945602 0.21586497 0.363057
0.18222609 -0.25289178 0.1399121 0.27217487 -0.08739942 0.14849806 0.110407 -0.12734433
-0.057486944 -0.723896 0.62603706 0.043878794 -0.44099307 -0.121551126 -0.07458831 0.114227206
-0.1578808 0.1447548 -0.28502122 0.2165714 -0.06842208 0.07087705 -0.48656794 -0.1219051
-0.20249794 -0.12750652 -0.61987704 -0.548593 -0.037054975 -0.12645285 0.2630022 -0.14820963
0.066583104 0.03832593 -0.3165799 0.05866537 0.19977657 -0.07427189 0.25367394 0.53442836
0.059072375 0.050091274 0.10117261 -0.038244896 -0.14280418 0.006747684 -0.0041756555 0.16848318
-0.026771743 0.14360788 -0.16514379 0.07738887 0.21499225 -0.21265596 -0.21047911 -0.015168418
-0.026267039 -0.17588255 -0.028688246 -0.62465626 -0.061512806 0.45110485 0.17468508 0.1551773
-0.023692232 -0.20290712 -0.032715365 0.12302285 -0.08771264 0.4506171 0.09459772 0.043846328
0.3677454 -0.035655 0.29838797 0.029368868 -0.11690107 -0.12309852 0.082475364 -0.11670784
-0.16702747 -0.2283249 0.029071752 -0.017440774 0.20103055 -0.32107773 -0.10577541 0.09205766
0.0014173061 0.020830112 0.6339141 0.06395859 -0.1632314 -0.47238657 -0.029165613 0.13999617
-0.1917459 -0.38098407 0.2983657 0.48392314 0.15844952 -0.22077183 -0.06418808 0.10751579
0.1352271 -0.1688295 0.36276272 -0.40735078 0.27883282 -0.053567547 -0.13917667 0.23671106
-0.6666312 0.16433856 -0.33804625 -0.059629925 -0.2266227 -0.29704496 0.116452724 0.06844842
-0.35135496 -0.49537623 -0.22304605 -0.10777143 0.41662034 -0.017913748 0.34832102 -0.17279261
-0.0432212 0.21617918 0.2585954 -0.2948341 -0.21975172 -0.16700432 0.2414321 -0.045476917
0.10539213 -0.625169 -0.1724014 0.02890776 -0.07229826 0.08910398 0.39137816 -0.19496867
0.10081175 -0.7662318 -0.3847153 -0.16616178 -0.42144877 -0.18473618 -0.41596538 -0.5515227
0.048409257 -0.11090161 -0.07686855 -0.06733398 -0.03902015 -0.46786776 -0.14532745 -0.23460147
-0.18200046 -0.09655987 -0.1498896 0.2187872 0.05205466 -0.41535568 -0.42456025 0.1553319
-0.47818086 -0.056911718 0.14363503 -0.31204385 -0.1171654 0.0149136 0.21970673 -0.25185484
0.34848046 -0.23979598 0.19630706 0.05500668 0.08259093 0.3888928 -0.3385636 -0.029459234
-0.25196907 -0.29959825 0.0891437 -0.13589676 0.1459669 -0.20339328 0.55712426 -0.062205575
-0.31345788 -0.36843306 -0.03063015 0.028736694 0.118639775 -0.078704275 0.024426566 -0.17010455
0.6460981 -0.1197274 -0.12363272 -0.14363848 -0.15161258 0.112232156 0.058421806 0.36422804
0.41525805 -0.350524 -0.011000209 -0.5932823 0.24322703 0.28919414 -0.33886713 0.10237454
0.07731495 0.094216034 -0.33943474 0.496237 -0.17029512 0.21928665 -0.10904032 0.017479675

fc2.bias f4 [64]
00000000: f017 03be 2b4d e53c 4204 f5bd 7880 c4bd
00000010: f6c9 853c fd07 b4be 4a82 f7bd d7a9 9dbd
00000020: 7f54 143f 4168 3e3f 650e 96be 4082 053f
00000030: 7b0d f73e 8b3e 24be 6548 593d ba54 01be
00000040: 2f3b f63d 6673 a43e 17a2 dcbd ca89 f13e
00000050: 0fb2 de3e 229e 533f d7cf d0bd 40d5 34bd
00000060: bbbf 7fbe 2881 22be 28ba 27be fddc 9cbe
00000070: 6ca7 63be 9beb b93d 9591 12be 1dea d23e
00000080: 34ef 7fbe 583a 483e 10b9 243d bd19 8a3e
00000090: 0f9e 0bbc 6d21 a3be cccc 0d3e 7c6f 2dbc
000000a0: 83af 333e 78f1 4f3f a610 243f ac79 4bbe
000000b0: b2e9 1f3e f325 17be 43d7 1b3f 557d 19be
000000c0: 8a28 153e 799d 053e 3709 3bbd 1404 3a3f
000000d0: 91db a3bd 8e4e 82be ff4c 723c 6345 95bd
000000e0: ada3 5ebe 8421 50be ff1c 7dbd a8d3 073d
000000f0: 8f89 1ebe e4fd 0e3f a015 2ab9 f405 6fbe
-0.128021 0.027990898 -0.11963703 -0.09594816 0.016331654 -0.35162345 -0.120853975 -0.0769841
0.5794143 0.7437783 -0.29307857 0.5215187 0.48252472 -0.16039483 0.053047556 -0.12629977
0.12023007 0.32119292 -0.10773104 0.47175437 0.43495223 0.82663167 -0.10195892 -0.044148684
-0.24975483 -0.15869582 -0.16379607 -0.3063735 -0.22231835 0.09078141 -0.14313348 0.4119424
-0.24993593 0.19553506 0.04021555 0.26972762 -0.008521571 -0.3186144 0.13847655 -0.010585662
0.17547421 0.8122783 0.64087903 -0.19870633 0.15616491 -0.1476057 0.6087534 -0.14989217
0.14566246 0.13048352 -0.045663085 0.7266247 -0.08000863 -0.25450557 0.014788865 -0.07288625
-0.21742125 -0.20325285 -0.06179523 0.033160836 -0.15482162 0.55856156 -0.0001622052 -0.23342115

fc3.weight f4 [4, 64]
00000000: 97ae bebe fee7 a13e caa3 99be b3cd 4f3e
00000010: 2d18 d7be c90d 7dbe 5608 7b3e ce8f 85be
00000020: 866e 603e ec61 553e 5060 24be facb 663e
00000030: 6035 a53d f806 48bd 14e6 933d ac49 44bf
00000040: f9fd 0b3f d472 343e 1b37 5dbb a426 e43d
00000050: f71c 283e 9205 923e 872c c93d dc24 7d3e
00000060: a0d7 aebd 6749 aabe 3946 20be 9945 f6bd
00000070: 19bd 033f 4faf ef3e 91ea 91be 814c 073e
00000080: bfda 08be d4f8 b33e 525f 083c a0d9 f73d
00000090: f845 a23e 908a 2abf 549e 0ebe 67a7 d13d
000000a0: 2df2 013d c80a 703e d1fa 353e 1b29 cdbc
000000b0: 8bf1 033e dc63 84be e81c 823e 1193 1c3e
000000c0: e7e5 e23e 1f78 2f3e 18dc 783e 42f8 553e
000000d0: 6a98 8d3d 759c 4cbe 8a3b 863d 34ce 66be
000000e0: 059b a1be 71df 89bf 20ba 563e b255 883e
000000f0: 4b3c 7fbd 7bfc 3d3e ceb2 a33e 1bea 3d3e
00000100: f4c0 203e b927 923e e011 17be 0f68 bd3e
00000110: 455c a0be 0413 0cbe 66e2 a83e 4bde 6e3e
00000120: 7ae3 7b3d 73c8 4d3e f352 55be 1207 943e
00000130: 604f 723e f4fb ea3d 2f22 9a3e fedd adbd
00000140: 79e4 043f 3560 8d3e 6fc1 8abd 0f12 3e3e
00000150: f6f4 6f3e 7c23 a23e e37b 93bd 93ca 243e
00000160: 8b67 e2be 5f85 8abe 785e 72be 835f 31be
00000170: b486 383f 9f32 1a3f e5a1 22bd 89aa 613e
00000180: 5352 17be 68f7 8b3e 88dc 483e 4608 e83d
00000190: 725a bd3e 1c69 a0bd 1f53 de3d 018c d53e
000001a0: ba79 b83d 6bae 7d3e ba5b eb3d de5d 43be
000001b0: 1389 783e eca0 17be 7989 463e 17d3 b7bd
000001c0: fa7d fe3e 90b7 a13c 607b b23e f630 133e
000001d0: 913e 9c3e 51db 98bd 5aa8 c13e 0d50 133e
000001e0: c27a c4bd 3815 a0be 577a e3bc d36d 443e
000001f0: a692 d9bd e1bd 613e b203 463e ce0f e5bd
00000200: 2ac1 953d 2bf3 8c3e bfc9 cebe 98c0 bd3e
00000210: f391 87be ffd5 6cbe eec1 e33d 2393 cf3d
00000220: 6031 183e 82f2 703e fa8a 90be d763 7d3e
00000230: 3a54 803e 1eff 473e a634 a6bd 499c 9a3e
00000240: eb81 c13c c28a ec3d 6c3d 2cbd f395 ff3d
00000250: 395d b63d ffac a03e 7c8c 1abf 684a 283d
00000260: f08b 7d3e e15b cebd d73c 7a3b deda 62be
00000270: 525a 193f 8676 fe3d 3026 c5bd db62 9f3d
00000280: 07df b4be cb5a 713e db02 a03e efe3 9f3e
00000290: fcc4 8f3e 8a75 2ebd 3cd3 463e da3e 983e
000002a0: 1800 0f3d fee6 783e 9ef0 4c3e e88e f6bd
000002b0: dc83 e3bd 2702 a5be a101 623e 0a1e 193e
000002c0: eebb 293e 3eea dc3d 67e2 883e 1b0f 8d3e
000002d0: cc2b 10bf 2631 403d 7256 2f3e 3684 4b3d
000002e0: 6a98 15bf 258f 0bbe d5ea a13d 983a 9b3e
000002f0: 41a4 43be db91 843e 48c5 3b3f 7fef 19bf
00000300: 97c7 053e 2848 633e ba9b 50be 5a12 783e
00000310: 98d1 b4be a011 513d 5cdc ec3e 4dfd 6b3e
00000320: 76d8 183e f227 873e 4f1c 56bd 32e8 223e
00000330: 2274 1c3e 054d 013e 0a3d ea3e 098a 38be
00000340: 4e71 bf3e 13a8 8f3e 1a24 a23d dd27 783e
00000350: 10ee cd3d 6893 933e b6ab 1dbf 4919 a73e
00000360: b229 003d be5e bdbd cc1e 22be 8019 b83e
00000370: 203e ce3e 271a b93e 0bb8 a43d 88b9 4f3e
00000380: 02f1 5dbe 881a 983e f4fa a13c 216d b13d
00000390: e493 073f f1fa 403c f8cd cb3e a43e 1abd
000003a0: e168 d1bd b846 863e 8b93 923e 2fe1 9fbe
000003b0: cd38 f73e daa8 643d b4cc 353e b43e 1abd
000003c0: 5c10 ee3e efa2 39bb d141 f7bb 1f72 543e
000003d0: 03fb 00bc d5c2 68be 4e44 993d 36fa 1b3e
000003e0: cead 5fbe e4e1 9fbe 1170 9d3c 8d30 453e
000003f0: 272d 96be 6fe5 3d3e f08e 8fbe 2564 edbe
-0.37242576 0.31622308 -0.30007774 0.20293312 -0.42010632 -0.2471229 0.24514899 -0.26086277
0.21917161 0.20838135 -0.16052365 0.22538748 0.08066821 -0.04883477 0.07221618 -0.76674914
0.54684407 0.17621928 -0.003375477 0.111401826 0.16417299 0.28519875 0.09822946 0.24721092
-0.08537221 -0.33259127 -0.15651788 -0.120249934 0.51460415 0.46813437 -0.28499272 0.13212778
-0.13364695 0.35150778 0.008323507 0.121020555 0.31694007 -0.6661768 -0.13927585 0.102370076
0.031725097 0.23441613 0.1777146 -0.025044015 0.1288511 -0.25857437 0.2541268 0.15290476
0.44316027 0.17135666 0.24302709 0.20895484 0.06913836 -0.19981559 0.06554325 -0.22539598
-0.31563583 -1.0771314 0.20969439 0.2662788 -0.06231336 0.18553345 0.31972355 0.18546335
0.15698606 0.2854593 -0.14752913 0.36993453 -0.31320396 -0.13679129 0.32985228 0.23326986
0.061496235 0.20095997 -0.20832424 0.28911644 0.23663092 0.114738375 0.30104205 -0.08489607
0.5191112 0.27612463 -0.06775176 0.18561576 0.23433289 0.31667697 -0.07201364 0.16092901
-0.44219622 -0.2705488 -0.2366885 -0.17321591 0.7208054 0.6023349 -0.039705176 0.2203771
-0.14777498 0.27337193 0.19615376 0.11329703 0.36983067 -0.07832548 0.10855698 0.41708377
0.090075925 0.24773566 0.11492105 -0.19078776 0.2427104 -0.1480748 0.19388379 -0.08975809
0.49705487 0.01974085 0.34859753 0.14374146 0.30516484 -0.07463706 0.37823755 0.14386006
-0.09593727 -0.3126619 -0.027768297 0.1918252 -0.10623674 0.2204509 0.19337347 -0.11184655
0.07312234 0.27529272 -0.40388295 0.37061 -0.26478538 -0.23128508 0.111209735 0.10135486
0.14862585 0.2353001 -0.2823103 0.24745117 0.2506426 0.19530913 -0.08115511 0.3019736
0.02362152 0.115499035 -0.042050764 0.124797724 0.089044996 0.31381986 -0.6037061 0.041086584
0.24760413 -0.10076118 0.0038183236 -0.22153804 0.5990344 0.1242495 -0.09626424 0.07782527
-0.35326406 0.23569791 0.3125218 0.31228587 0.28079975 -0.042592563 0.19416517 0.29735452
0.0349122 0.24306867 0.20013663 -0.12038976 -0.111091346 -0.32228205 0.22070934 0.14952865
0.16575596 0.10786866 0.2673523 0.27550587 -0.5631683 0.04692187 0.1712282 0.049686633
-0.5843569 -0.13628824 0.07906119 0.3031814 -0.19105627 0.2589253 0.733479 -0.6013107
0.13064419 0.22195494 -0.20371905 0.2422575 -0.35316157 0.0510422 0.4626187 0.23045845
0.14926323 0.26397663 -0.05227309 0.15908888 0.15278676 0.12627037 0.45749694 -0.18021406
0.37391132 0.28057918 0.07917042 0.24233957 0.100551724 0.288234 -0.61590135 0.3263648
0.031289764 -0.09246586 -0.1583206 0.35956955 0.40281773 0.36152765 0.08042916 0.20285618
-0.21673968 0.29707742 0.019772984 0.08663393 0.5296004 0.011778579 0.3980558 -0.037657395
-0.10225082 0.2622583 0.2862819 -0.3122649 0.48285523 0.055825092 0.1775387 -0.037657455
0.46496856 -0.0028325876 -0.0075456877 0.20746659 -0.007872346 -0.22730573 0.07483731 0.15232167
-0.21843645 -0.31227028 0.019218476 0.19256802 -0.29331324 0.18544553 -0.2803874 -0.46365467

fc3.bias f4 [4]
00000000: 6382 2b3f d296 d23e 54c8 bc3e fba3 b93e
0.6699583 0.41130692 0.36871588 0.3625792
