checkpoint.pth (torch, 29271 bytes, 6 tensors)

fc1.weight f4 [64, 37]
0.024066279 -0.0965392 -0.0347841 0.14181924 0.06757493 0.09195982 0.16027912 0.018282935
0.08003543 -0.021051943 -0.00085033744 0.23294657 -0.4194552 -0.40951025 -0.68741506 -0.17888366
0.299813 -0.031811394 -0.036549814 -0.42469826 0.0788442 0.1222289 0.14074312 -0.30177075
-1.1522195 0.079453506 0.0725674 -0.06373588 -0.13147824 -0.3096747 -0.14908734 -0.04612112
0.2755359 -0.21901502 -0.851725 -0.008686055 0.0067766947 0.14161457 -0.13642341 0.097469814
-0.26148877 -0.12100852 0.08216987 -0.20923728 -0.12598765 -0.66455233 -0.6091625 -0.07315139
-0.00020352384 -0.10264212 0.0756713 0.18963812 -0.033570573 -0.45271727 0.36471918 -0.30597106
-0.13743277 -0.34913468 0.10803573 -0.38079485 0.07529793 0.0047031553 -0.16977523 -0.43738884
-0.121869944 0.44603565 -0.080228254 0.09082443 -0.10325908 0.044634625 0.03943484 -0.14779748
0.120896034 -0.027238445 0.09949525 -0.018850673 0.15261115 0.14369519 0.014767999 -0.97265744
0.34036568 0.2691251 0.06590466 -0.7845673 -0.16306053 0.063785255 0.039612245 0.0024243563
0.10452561 -0.34739795 0.07047676 0.19892874 0.13541627 -0.4080428 -0.018317424 0.0080548115
0.057730425 -0.24634156 0.09241893 -0.7789431 -0.12443909 0.400204 -0.03258787 -0.99769396
-0.37620237 0.015409424 0.010398258 -0.17038074 0.24626885 -0.056672283 -0.024365941 0.17537057
-0.21335949 -0.047942158 -0.44403908 0.07331737 0.05563338 -0.014143448 -0.40962437 -0.32829067
0.09734636 -0.016139876 -0.6010009 0.2499251 -0.6091373 -0.49853203 -0.5042323 0.074705735
-0.22546086 -0.59380925 0.5607527 -0.23834886 -0.262503 0.0059682936 0.012797185 -1.2293836
-0.05314682 -0.38228086 0.21386722 -0.12712124 -0.050428633 -0.1654082 0.18730645 -0.20037052
0.12916473 -0.5524459 -0.21442351 -0.13254172 -0.11777929 -0.06341239 -0.14066367 -0.04373225
-0.11444547 0.06369289 0.3204499 0.054454193 0.07405555 -0.16670361 -0.05306098 -0.14456606
0.05325606 0.12987106 0.04299559 -0.15566027 -0.006742189 -0.042192224 0.09543331 0.014151819
0.0039066277 -0.13671356 0.092604615 0.13888378 0.12836507 0.26621604 -0.88916576 0.048016936
-0.460809 -2.2969158 0.013154898 0.057295624 0.18074341 0.19138071 0.12508169 0.018842997
-0.016334798 -0.041553177 0.044111986 -0.05192703 -0.026136609 0.06654285 0.15177946 -0.28302005
0.31090468 -0.8437404 -2.257442 -0.016603699 -0.03504138 -0.028803794 -0.070254296 0.17265393
0.0207552 -0.010455164 -0.0068651834 0.025686644 0.02633987 0.10248941 -0.07011992 0.09501806
0.21483605 0.049623325 0.096697494 -0.06566743 0.006834857 -0.008075248 0.22756837 0.028786726
-0.07385057 -0.16051461 -0.1239468 -0.1799271 -0.036780894 0.020728877 0.3956131 0.04884055
-0.505028 -0.4258783 -1.4118268 -0.19106092 -0.049420606 0.12263435 -0.17996345 -0.21312158
0.07566109 0.18703507 0.16699836 -0.36351007 -0.1093537 -0.29337958 0.03208698 -0.0069405744
0.14323235 0.25752228 -0.3147943 0.16230495 0.01793307 -0.3924086 0.07140337 -0.17995012
-0.006073019 0.041336626 -0.07716457 0.050617456 -0.1303371 0.03285739 0.2390067 -0.32307544
00000000: a526 c53c 58b6 c5bd c679 0ebd 1039 113e
00000010: ba64 8a3d 6e55 bc3d 3620 243e 18c6 953c
00000020: 9ee9 a33d 2075 acbc 2ee9 5eba 8c89 6e3e
00000030: d5c2 d6be 54ab d1be 6ffa 2fbf 472d 37be
00000040: 1781 993e aa4c 02bd 42b5 15bd 0d72 d9be
00000050: 1179 a13d 2553 fa3d f71e 103e b281 9abe
00000060: ee7b 93bf 85b8 a23d 389e 943d f587 82bd
00000070: 3ba2 06be af8d 9ebe 5aaa 18be 80e9 3cbd
00000080: 0b13 8d3e 7945 60be a60a 5abf f54f 0ebc
00000090: 090f de3b 6903 113e 94b2 0bbe 419e c73d
000000a0: dbe1 85be 51d3 f7bd ad48 a83d 4c42 56be
000000b0: e802 01be 1a20 2abf 13f2 1bbf 65d0 95bd
000000c0: 0469 55b9 0836 d2bd 8ef9 9a3d 7f30 423e
000000d0: 4c81 09bd 8fca e7be 79bc ba3e 3da8 9cbe
000000e0: 2dbb 0cbe c8c1 b2be d641 dd3d 8bf7 c2be
000000f0: cd35 9a3d ed1c 9a3b 8fd9 2dbe 6ef1 dfbe
00000100: f396 f9bd c95e e43e b64e a4bd 2902 ba3d
00000110: 7f79 d3bd ccd2 363d 6d86 213d 3958 17be
00000120: 5798 f73d 2923 dfbc 2ac4 cb3d ba6c 9abc
00000130: 1946 1c3e d524 133e 7af5 713c 1400 79bf
00000140: 6944 ae3e c4ca 893e 06f9 863d 67d9 48bf
00000150: 57f9 26be d8a1 823d 7340 223d f3e1 1e3b
00000160: 8611 d63d 25de b1be 1f56 903d fab3 4b3e
00000170: 90aa 0a3e fcea d0be 6c0e 96bc 54f8 033c
00000180: bd76 6c3d f640 7cbe 2346 bd3d d168 47bf
00000190: ecd9 febd 8ae7 cc3e dc7a 05bd df68 7fbf
000001a0: 999d c0be cf77 7c3c 755d 2a3c 4a78 2ebe
000001b0: e72d 7c3e 3221 68bd 159b c7bc 5894 333e
000001c0: e97a 5abe ff5e 44bd 1759 e3be 6b27 963d
000001d0: d4df 633d ecb9 67bc 49ba d1be b715 a8be
000001e0: 875d c73d c637 84bc 32db 19bf 5eec 7f3e
000001f0: 6cf0 1bbf 973f ffbe 5e15 01bf 52ff 983d
00000200: 36df 66be e203 18bf 7d8d 0f3f b911 74be
00000210: cb66 86be ad91 c33b 49ab 513c 715c 9dbf
00000220: 7bb0 59bd 51ba c3be 0200 5b3e 122c 02be
00000230: 418e 4ebd c460 29be 43cd 3f3e ee2d 4dbe
00000240: c243 043e 186d 0dbf d691 5bbe 04b9 07be
00000250: 4536 f1bd 5bde 81bd 230a 10be 9620 33bd
00000260: 6362 eabd 6b71 823d 0212 a43e 5c0b 5f3d
00000270: 70aa 973d 5ab4 2abe 7856 59bd 2009 14be
00000280: 0723 5a3d ebfc 043e 251c 303d 6865 1fbe
00000290: 95ed dcbb c1d1 2cbd 8a72 c33d 08dd 673c
000002a0: 2b03 803b a4fe 0bbe 7da7 bd3d 8d37 0e3e
000002b0: 2272 033e 784d 883e 5ea0 63bf 68ad 443d
000002c0: 28ef ebbe ab00 13c0 a487 573c d1ae 6a3d
000002d0: cd14 393e 4ef9 433e 6a15 003e a15c 9a3c
000002e0: 8ed0 85bc aa33 2abd c5ae 343d 70b1 54bd
000002f0: 711c d6bc 9e47 883d 136c 1b3e 01e8 90be
00000300: e62e 9f3e 5fff 57bf ee79 10c0 7b04 88bc
00000310: 8d87 0fbd eff5 ebbc 7ce1 8fbd 31cc 303e
00000320: cf06 aa3c 234c 2bbc 55f5 e0bb cc6c d23c
00000330: b6c6 d73c f8e5 d13d 089b 8fbd d498 c23d
00000340: fbfd 5b3e d441 4b3d 5609 c63d a57c 86bd
00000350: f0f6 df3b 0c4e 04bc af07 693e 24d2 eb3c
00000360: f83e 97bd f15d 24be d2d7 fdbd cf3e 38be
00000370: 90a7 16bd 9bcf a93c cd8d ca3e 070d 483d
00000380: 8449 01bf b80c dabe beb6 b4bf 79a5 43be
00000390: 436d 4abd b827 fb3d 5748 38be 8b3c 5abe
000003a0: 34f4 9a3d 1f86 3f3e 9e01 2b3e fe1d babe
000003b0: d5f4 dfbd d935 96be a36d 033d c26d e3bb
000003c0: 80ab 123e f6d9 833e b82c a1be 4533 263e
000003d0: 60e8 923c c8e9 c8be ee3b 923d d844 38be
000003e0: 2d00 c7bb 9850 293d 7508 9ebd 4054 4f3d
000003f0: 1777 05be 7895 063d 2cbe 743e 256a a5be

fc1.bias f4 [64]
0.22231942 -0.10620933 -0.02487502 -0.084584385 0.21474744 0.0043486967 -0.10511677 0.0921693
-0.07292916 -0.1068385 0.18934476 0.23012634 0.15897346 0.14193209 -0.0014297338 -0.015637802
0.111711815 0.020037094 -0.0063051255 -0.23703988 -0.16746452 -0.0013624842 -0.089135855 0.0024906436
-0.10967717 0.1763731 -0.14204258 -0.09265903 0.13452642 0.055162665 -0.15071218 -0.15771961
-0.017583258 -0.017300025 -0.22543387 -0.043184128 -0.10203595 0.04165443 -0.064887136 -0.28352582
-0.09239915 -0.12436209 -0.037632763 0.38300171 -0.021786593 -0.115103066 -0.015760003 -0.22281516
-0.11669296 -0.031170081 -0.1944557 0.058167774 -0.05710412 -0.007873076 -0.19723131 -0.16593674
0.09145537 -0.06920875 -0.048218075 -0.08907347 -0.023870964 -0.04508961 0.13904423 -0.109972544
00000000: b4a7 633e 4784 d9bd b3c6 cbbc 943a adbd
00000010: c1e6 5b3e 837f 8e3b 7647 d7bd 42c3 bc3d
00000020: e25b 95bd 25ce dabd 98e3 413e 3da6 6b3e
00000030: f0c9 223e a556 113e e865 bbba d91a 80bc
00000040: 2ac9 e43d d524 a43c 3a9b cebb 95ba 72be
00000050: d27b 2bbe 6295 b2ba dc8c b6bd 113a 233b
00000060: 6d9e e0bd 269b 343e 9c73 11be 04c4 bdbd
00000070: 4bc1 093e 3ff2 613d 4b54 1abe 4081 21be
00000080: c40a 90bc c8b8 8dbc 23d8 66be d7e1 30bd
00000090: 39f8 d0bd d69d 2a3d 8ce3 84bd 4c2a 91be
000000a0: c43b bdbd 8db1 febd d024 1abd cd18 c43e
000000b0: cc79 b2bc 28bb ebbd 1f1b 81bc a829 64be
000000c0: b8fc eebd 6658 ffbc 651f 47be 5541 6e3d
000000d0: 02e6 69bd 13fe 00bc 01f7 49be 52eb 29be
000000e0: f44c bb3d 51bd 8dbd 5180 45bd 276c b6bd
000000f0: 0a8d c3bc e2af 38bd 9c61 0e3e 4939 e1bd

fc2.weight f4 [64, 64]
0.35262755 -0.24409589 0.4292328 -0.45749903 0.1084196 0.17515297 -0.5806327 0.19099227
0.16798428 -0.23050609 0.066905975 -0.056605402 -0.011417089 0.114434265 -1.0089644 0.03350821
-0.17243284 0.30999088 -0.58323634 -0.06015407 -0.47967473 0.43756986 0.072749004 0.017969012
0.1825854 0.10063463 0.44113925 -0.028416859 0.07837369 -0.1021444 0.36762023 -0.42352697
-0.0040011154 0.07236658 -0.016425028 -0.77984613 -0.39474535 0.080035225 -0.24809994 -0.33948514
0.38109574 0.1484844 0.53758335 -0.14780888 -0.4751591 -1.0394459 -0.37356633 0.2300391
0.25114584 -0.20479517 0.24136521 0.055237904 -0.18448457 0.010273464 -0.08490049 -0.12762624
0.08240113 0.055795632 0.2017635 0.24245204 -0.2483204 0.085973375 0.07675724 0.070288934
-0.12355864 0.078532666 -0.025394907 0.29692292 0.0410391 0.13803868 0.21380274 -0.09920369
-0.032320794 -0.36808947 -0.08104022 0.4465774 0.048289493 -0.10343868 -0.33176973 -0.5076746
-0.014953987 0.1854606 0.012468277 -0.09337266 -0.10478285 0.0010385661 -0.0031564566 -0.6033499
0.07846936 0.122242615 0.15819144 -0.18747565 0.25458154 -0.08436247 -0.0054269116 0.00024221152
-0.14821385 -0.30843657 0.08506232 0.05952798 -0.2524748 -0.23306538 0.027512955 0.02705747
-0.07749939 -0.17930833 0.022102619 -0.16247185 0.03463665 0.20694628 -0.06378687 0.05118991
0.042805478 -0.10706675 0.03882922 0.30156016 -0.05491427 0.14006618 -0.09472598 0.018904567
-0.32741728 -0.0729756 0.39676064 0.2640923 -0.071378306 -0.2531345 -0.09321334 -0.011797678
-0.7335878 -0.2358782 0.12725043 -0.06613656 0.16194434 0.0882206 -0.35455996 -0.12840143
-0.1978027 0.017246848 -0.21676774 -0.2735089 0.12860852 0.07092149 -0.09355444 -0.051113907
-0.3731869 0.00801289 0.016902123 -0.122583956 -0.073696226 -0.021493603 -0.12520067 0.10788822
-0.32152757 0.23680937 0.1293622 0.05634626 -0.1136338 0.009641402 -0.098107025 -0.14165404
-0.43265924 -0.43548656 -0.7113914 -0.5475252 0.0070192013 0.015746579 -0.069728516 -0.011175566
0.14716627 -0.58413494 -0.04109575 -0.11668315 -0.02366816 -0.010056344 0.079214156 -0.56837696
-0.037177544 -0.7218163 -0.09404179 -0.1159876 -0.0438204 0.041845854 -0.4943936 -0.34601617
-0.38316634 -0.46278474 -0.14748605 -0.2533129 -0.09218368 -0.3402918 0.17473873 -0.22814044
-0.04423287 -0.14047112 0.060768 -0.14458464 -0.067727916 -0.0049061435 -0.0510769 -0.059583787
-0.11862233 -0.02754439 -0.05553817 0.06270293 -0.08801086 0.005534468 0.0027631314 -0.06996075
-0.10427324 -0.04559727 -0.02064679 -0.033471256 0.028372606 0.046859104 -0.067841955 0.0011132798
0.023952145 -0.0303543 -0.009897851 0.039561693 0.067141116 -0.12988031 0.03532995 -0.014810394
-0.05909903 -0.097745754 0.03066455 0.086361945 -0.14689757 0.039830405 0.0632873 -0.012829011
-0.038579483 0.051502366 -0.0031918355 -0.11086029 -0.081714645 -0.0036838267 0.013152086 -0.014057157
0.01397109 -0.041350655 -0.12784284 -0.0135012 0.03662031 -0.039974995 -0.08032679 0.056764614
-0.13076596 -0.11593531 -0.0745367 0.09031629 -0.16668054 -0.07390025 -0.15901415 -0.018664934
00000000: 998b b43e 46f4 79be 67c4 db3e 503d eabe
00000010: 180b de3d 4d5b 333e 58a4 14bf 7a93 433e
00000020: 1204 2c3e ca09 6cbe 0006 893d 11db 67bd
00000030: be0e 3bbc 835c ea3d bf25 81bf e83f 093d
00000040: 3c92 30be 20b7 9e3e fa4e 15bf 1d64 76bd
00000050: ed97 f5be 2809 e03e 6efd 943d c033 933c
00000060: abf7 3a3e 8719 ce3d 01dd e13e 79ca e8bc
00000070: 6382 a03d 1531 d1bd b838 bc3e 87d8 d8be
00000080: ca1b 83bb ee34 943d c88d 86bc ffa3 47bf
00000090: 101c cabe 82e9 a33d e90d 7ebe ffd0 adbe
000000a0: fb1e c33e 4b0c 183e 109f 093f 365b 17be
000000b0: 0e48 f3be 900c 85bf 1644 bfbe 5f8f 6b3e
000000c0: 3096 803e d3b5 51be 7128 773e 2441 623d
000000d0: 86e9 3cbe 0852 283c 4fe0 adbd 74b0 02be
000000e0: ecc1 a83d f689 643d 179b 4e3e 5945 783e
000000f0: b447 7ebe cf12 b03d e632 9d3d a5f3 8f3d
00000100: 500c fdbd bcd5 a03d fb08 d0bc 4806 983e
00000110: 9e18 283d 035a 0d3e 1bef 5a3e 4e2b cbbd
00000120: cf62 04bd 3976 bcbe 6af8 a5bd cba5 e43e
00000130: 34cb 453d a9d7 d3bd b9dd a9be f6f6 01bf
00000140: 9101 75bc 62e9 3d3e be47 4c3c 2a3a bfbd
00000150: 6498 d6bd 7f20 883a 8edc 4ebb 2475 1abf
00000160: 8bb4 a03d 565a fa3d f0fc 213e 9ef9 3fbe
00000170: 8358 823e 3bc6 acbd 3cd4 b1bb 29fa 7d39
00000180: 5fc5 17be 66eb 9dbe 2735 ae3d 9cd3 733d
00000190: 6144 81be b1a8 6ebe d962 e13c a1a7 dd3c
000001a0: 00b8 9ebd 9a9c 37be 8d10 b53c 055f 26be
000001b0: 29df 0d3d bae9 533e b1a2 82bd 83ac 513d
000001c0: cc54 2f3d d045 dbbd 630b 1f3d 1866 9a3e
000001d0: c9ed 60bd 826d 0f3e b2ff c1bd c0dd 9a3c
000001e0: 3da3 a7be 3b74 95bd 3624 cb3e 1b37 873e
000001f0: ca2e 92bd d89a 81be a3e6 bebd 0c4b 41bc
00000200: 69cc 3bbf 0e8a 71be f04d 023e 9b72 87bd
00000210: bdd4 253e 00ad b43d e288 b5be aa7b 03be
00000220: ca8c 4abe 4349 8d3c 5df8 5dbe 5c09 8cbe
00000230: f4b1 033e 493f 913d 7899 bfbd d15c 51bd
00000240: 5a12 bfbe 7f48 033c 5276 8a3c 4c0d fbbd
00000250: 0cee 96bd 5a13 b0bc 9b34 00be 80f4 dc3d
00000260: 439f a4be 287e 723e 8677 043e 56cb 663d
00000270: d6b8 e8bd f9f6 1d3c 56ec c8bd c20d 11be
00000280: 8385 ddbe 18f8 debe bf1d 36bf 9d2a 0cbf
00000290: 5401 e63b f8fe 803c d3cd 8ebd b919 37bc
000002a0: c1b2 163e de89 15bf 0454 28bd 93f7 eebd
000002b0: bbe3 c1bc 5dc3 24bc 083b a23d 2781 11bf
000002c0: 7b47 18bd f4c8 38bf fb98 c0bd e88a edbd
000002d0: 057d 33bd 8f66 2b3d 2821 fdbe 0829 b1be
000002e0: 612e c4be 1ff2 ecbe 9506 17be 3ab2 81be
000002f0: ccca bcbd ba3a aebe b6ee 323e a69d 69be
00000300: 872d 35bd a9d7 0fbe dee7 783d ff0d 14be
00000310: efb4 8abd b7c3 a0bb 0336 51bd 210e 74bd
00000320: 44f0 f2bd c6a4 e1bc fe7b 63bd 656a 803d
00000330: 0a3f b4bd 7c5a b53b a715 353b 9547 8fbd
00000340: 358d d5bd 34c4 3abd 7523 a9bc 2819 09bd
00000350: ab6d e83c 55ef 3f3d b9f0 8abd 79eb 913a
00000360: 4a37 c43c 95a9 f8bc 992a 22bc 710b 223d
00000370: 4881 893d 58ff 04be 23b6 103d 4ba7 72bc
00000380: d311 72bd ed2e c8bd 3934 fb3c 88de b03d
00000390: 516c 16be 3525 233d c69c 813d c630 52bc
000003a0: 8505 1ebd 25f4 523d 1d2e 51bb b80a e3bd
000003b0: 025a a7bd 5b6c 71bb d97b 573c fd4f 66bc
000003c0: 00e7 643c 4e5f 29bd 3ce9 02be 2334 5dbc
000003d0: 2eff 153d d2bc 23bd 5f82 a4bd 0382 683d
000003e0: 83e7 05be 7e6f edbd b3a6 98bd bff7 b83d
000003f0: 4eae 2abe 0459 97bd 9bd4 22be 34e7 98bc

fc2.bias f4 [64]
-0.26457033 0.19598477 -0.05397191 -0.025174841 0.2468795 -0.28472155 -0.23279 0.07775046
0.34110656 0.7286833 -0.09507952 0.55605847 0.26934183 0.024767205 -0.10742602 0.24284267
0.11680455 -0.04048933 -0.09923054 0.277036 0.36947295 0.7947428 -0.14648464 -0.26974848
0.2791797 -0.0029337695 -0.14354435 -0.07372511 0.32362077 0.5763649 -0.08495625 0.47077575
-0.2890215 0.3065144 0.065740965 -0.081934355 -0.16477029 -0.12947252 0.06641911 0.002069587
0.06813677 0.7992359 0.58959496 -0.26722035 0.14590673 -0.08326221 0.484411 -0.2878211
0.105789736 0.18699269 0.06107858 0.7067058 0.04280476 -0.15194632 0.49717444 -0.15253983
-0.2506174 -0.1896594 0.064769715 -0.0039435504 0.08709737 0.17066209 0.10763849 -0.15784912
00000000: c375 87be 3bb0 483e a611 5dbd 783b cebc
00000010: fbcd 7c3e 06c7 91be 8060 6ebe a23b 9f3d
00000020: 85a5 ae3e fd8a 3a3f 0db9 c2bd d959 0e3f
00000030: 2ce7 893e 98e4 ca3c 2c02 dcbd c0ab 783e
00000040: 3937 ef3d 24d8 25bd 6239 cbbd aad7 8d3e
00000050: 8f2b bd3e 4474 4b3f 1200 16be 791c 8abe
00000060: a4f0 8e3e 7c44 40bb 4afd 12be 31fd 96bd
00000070: 9fb1 a53e a68c 133f 8bfd adbd 8509 f13e
00000080: a0fa 93be 75ef 9c3e 33a3 863d 33cd a7bd
00000090: 8bb9 28be 7294 04be be06 883d e8a1 073b
000000a0: 4a8b 8b3d b99a 4c3f b2ef 163f 1bd1 88be
000000b0: 9368 153e 6185 aabd b804 f83e 4a5d 93be
000000c0: 4aa8 d83d 037b 3f3e 882d 7a3d acea 343f
000000d0: 0b54 2f3d d197 1bbe a68d fe3e 6733 1cbe
000000e0: ed50 80be 1336 42be fca5 843d e638 81bb
000000f0: 1b60 b23d 0bc2 2e3e 9271 dc3d 33a3 21be

fc3.weight f4 [4, 64]
-0.28311673 0.19942594 -0.07898515 -0.054907072 0.3272073 -0.30470335 0.17278408 -0.37684518
0.10615827 0.22218688 0.13602223 0.28423667 0.2158287 -0.08342791 -0.1256681 0.08383171
0.17018276 -0.030332847 -0.00309452 0.19493687 0.12005288 0.26732117 -0.087803066 -0.2194145
0.08421694 0.17444327 -0.23100494 -0.43079832 0.35515216 0.17457418 -0.2684113 0.21680816
-0.54246664 0.2560419 -0.07847939 0.012279246 -0.05021928 -0.30068967 0.161576 0.40912104
0.0735234 0.22600214 0.14867814 -0.13954888 0.12972677 -0.16454908 0.18628247 -0.1149844
0.33517477 0.22464871 0.06120218 0.20115982 0.10802355 -0.28056723 0.1995982 0.51615155
-0.31612933 0.030566666 0.33547083 0.11012508 0.15587753 0.31871057 0.22631827 -0.0038877719
-0.12984718 0.17974742 0.3839665 0.028979156 0.25352335 -0.19612372 0.19263116 0.035021883
-0.03481608 0.19808607 0.10764022 0.23770107 0.2200059 0.07866326 -0.16270798 0.15096293
0.47838032 0.07958249 -0.062150348 0.22479948 0.20008354 0.31556866 -0.024094073 -0.30863014
0.16357972 -0.0802557 -0.09484289 0.14890416 0.37269914 0.21084999 0.00819981 0.20391107
-0.05898618 0.1260175 0.2627635 0.573647 -0.18389815 -0.48709852 0.24209557 0.27017757
0.17611131 0.25966153 0.12509601 -0.17134343 0.047814533 0.0024113627 0.22765964 -0.24831297
0.4453717 0.21648444 0.11617133 0.094703116 0.5399575 0.15936242 0.19302864 0.52104896
-0.10001205 -0.28747332 0.34459823 0.0869689 0.14110887 0.23565787 0.17695141 -0.10211456
-0.24413641 0.20522209 -0.3350671 0.033575855 0.22874077 -0.2065141 -0.68327844 0.26896596
0.16346705 0.20443638 -0.92415017 0.24317653 0.16190787 0.14063132 -0.1877678 0.2527757
0.3211182 0.29532015 -0.057394918 -0.021378554 0.08866691 0.26092982 -0.2766938 -0.32093456
0.10575142 0.20769389 0.08482578 -0.2532636 0.3161261 0.25449246 -0.13716821 0.052277867
-0.1160774 0.2571965 0.2434433 0.7683486 0.111726485 -0.06275084 0.1577035 0.10216801
-0.078611135 0.26257697 0.1905922 -0.14016613 0.22026865 -0.45683447 0.24569091 -0.07420572
0.17998937 0.14664695 0.16836593 0.32841948 0.62283164 0.255825 0.3266446 0.24621902
-0.18683119 -0.86426765 0.33723566 -0.33969513 0.09649179 0.051409524 0.27757552 0.21585071
-0.16597328 0.40070367 0.06821489 -0.051919248 0.087606 -0.26157838 0.13132127 0.17218417
0.25304478 0.26702887 -0.0033302372 0.09346447 0.25975764 0.24790055 -0.15313561 0.10918306
-0.036859475 0.1646151 0.064743005 0.27688438 0.10632177 0.28528744 -0.5507641 -0.10351903
0.23108196 -0.2458203 -0.11547053 -0.19840482 0.29752493 0.11787691 0.0068363138 0.22005071
0.11133263 0.2104079 -0.014877631 -0.18064803 -0.12173786 0.29183373 0.36539975 0.24779993
-0.11530289 0.27148178 0.27316687 -0.3780251 0.45987156 -0.27617416 0.1530113 -0.039697602
0.13251102 -0.077986166 0.2586693 0.21026994 0.009058838 -0.23385276 0.31022388 0.54251355
-0.17953913 0.007272485 0.37566236 -0.5238612 -0.35237032 -0.0023210512 0.17238373 -0.48815408
00000000: adf4 90be 5036 4c3e f7c2 a1bd 3de6 60bd
00000010: b787 a73e 1402 9cbe 4fee 303e daf1 c0be
00000020: 8269 d93d f584 633e 6949 0b3e 7887 913e
00000030: 3302 5d3e 41dc aabd 23af 00be f6af ab3d
00000040: 6444 2e3e 977c f8bc 6ecd 4abb 889d 473e
00000050: 49de f53d 52de 883e 18d2 b3bd 32ae 60be
00000060: ee79 ac3d 42a1 323e 8f8c 6cbe 9991 dcbe
00000070: 81d6 b53e 93c3 323e 356d 89be f502 5e3e
00000080: 18df 0abf ed17 833e cdb9 a0bd e42e 493c
00000090: bbb2 4dbd fff3 99be 2e74 253e 5078 d13e
000000a0: 7093 963d 1b6d 673e 153f 183e e7e5 0ebe
000000b0: 18d7 043e 8e7f 28be d5c0 3e3e f17c ebbd
000000c0: 079c ab3e 500a 663e 23af 7a3d d7fc 4d3e
000000d0: 733b dd3d 82a6 8fbe 7863 4c3e 8222 043f
000000e0: b4db a1be f266 fa3c d5c2 ab3e 4289 e13d
000000f0: 5c9e 1f3e 082e a33e fabf 673e fdc9 7ebb
00000100: a9f6 04be b50f 383e 4297 c43e b265 ed3c
00000110: d0cd 813e a8d4 48be 1a41 453e 1b73 0f3d
00000120: 4e9b 0ebd 13d7 4a3e 7a72 dc3d e967 733e
00000130: 3a49 613e 341a a13d ec9c 26be 0796 1a3e
00000140: 44ee f43e 25fc a23d 5d91 7ebd d631 663e
00000150: b3e2 4c3e 3792 a13e ef60 c5bc c504 9ebe
00000160: 7181 273e 1a5d a4bd fd3c c2bd 557a 183e
00000170: 6cd2 be3e 0fe9 573e 7f58 063c 10ce 503e
00000180: 7e9b 71bd bb0a 013e f088 863e 88da 123f
00000190: cc4f 3cbe fa64 f9be e7e7 773e b754 8a3e
000001a0: 8656 343e 5bf2 843e 2b19 003e a774 2fbe
000001b0: 2cd9 433d f407 1e3b 9c1f 693e c145 7ebe
000001c0: c207 e43e 19ae 5d3e 3ceb ed3d b5f3 c13d
000001d0: a83a 0a3f e72f 233e 4da9 453e 7763 053f
000001e0: 1ed3 ccbd b42f 93be 2e6f b03e c01c b23d
000001f0: d87e 103e 4c50 713e c032 353e 7021 d1bd
00000200: e5fe 79be bd25 523e ea8d abbe d686 093d
00000210: 053b 6a3e 6f78 53be 56eb 2ebf e8b5 893e
00000220: e863 273e c557 513e 1b95 6cbf 4503 793e
00000230: 2dcb 253e a801 103e 3446 40be d16b 813e
00000240: 9b69 a43e 3434 973e ef16 6bbd 1422 afbc
00000250: ff96 b53d 9898 853e cfaa 8dbe 8951 a4be
00000260: 3394 d83d b5ad 543e 23b9 ad3d c4ab 81be
00000270: 48db a13e d64c 823e d375 0cbe 5121 563d
00000280: fdb9 edbd 42af 833e 3349 793e 7eb2 443f
00000290: dbd0 e43d 8383 80bd 077d 213e 763d d13d
000002a0: e0fe a0bd 7d70 863e 9a2a 433e b687 0fbe
000002b0: 1b8e 613e 35e6 e9be 6696 7b3e 2bf9 97bd
000002c0: 224f 383e 9e2a 163e 1e68 2c3e 9926 a83e
000002d0: e571 1f3f 7ffb 823e f63d a73e d720 7c3e
000002e0: ad50 3fbe a540 5dbf 27aa ac3e 85ec adbe
000002f0: 7d9d c53d cb92 523d 611e 8e3e f807 5d3e
00000300: e6f4 29be 0829 cd3e 40b4 8b3d 47a9 54bd
00000310: c66a b33d 9aed 85be 1579 063e 0c51 303e
00000320: 168f 813e 02b8 883e 1c40 5abb 4d6a bf3d
00000330: f4fe 843e a4d9 7d3e 95cf 1cbe 5e9b df3d
00000340: f6f9 16bd dc90 283e fb97 843d cac3 8d3e
00000350: 3abf d93d 3211 923e e0fe 0cbf c901 d4bd
00000360: c0a0 6c3e 51b8 7bbe d07b ecbd a22a 4bbe
00000370: 3055 983e 7369 f13d 2803 e03b f954 613e
00000380: 5d02 e43d 2b75 573e 4fc1 73bc ccfb 38be
00000390: b351 f9bd 3b6b 953e ad15 bb3e 44bf 7d3e
000003a0: ec23 ecbd a9ff 8a3e 87dc 8b3e 828c c1be
000003b0: 4974 eb3e b366 8dbe ffae 1c3e f499 22bd
000003c0: f8b0 073e 36b7 9fbd 4d70 843e 0151 573e
000003d0: 856b 143c 1977 6fbe aad5 9e3e 2be2 0a3f
000003e0: 1bd9 37be 074e ee3b d156 c03e c51b 06bf
000003f0: e269 b4be c71c 18bb 5c85 303e 55ef f9be

fc3.bias f4 [4]
0.61752886 0.38738018 0.34931403 0.35014904
00000000: 5f16 1e3f b256 c63e 4ad9 b23e bc46 b33e
